Issue#4003-PySyft/results/model.pth (torch_old, 88668 bytes, 8 tensors)

conv1.weight f4 [10, 1, 5, 5]
0.21147346 0.23152757 0.3119905 0.13122678 0.36473113 0.08130752 0.15623148 0.124458715
0.23770133 0.0011330509 0.095264636 -0.11492755 -0.19708179 -0.07569075 0.11794045 0.047104448
-0.25065652 0.10985926 -0.28030857 0.0778787 -0.15734433 -0.22808035 -0.24457581 -0.031146418
-0.033351626 0.20991556 -0.13890755 -0.089840725 0.113221385 0.12593439 0.16480838 -0.11258927
-0.2094939 -0.15504806 0.09226071 0.2827437 -0.021453988 -0.121797085 0.030263018 -0.16279458
0.26279286 -0.17949963 -0.18918511 -0.10847369 0.0047193286 0.22877128 0.21369304 -0.24190256
0.020532865 -0.16623595 0.12535831 0.26867118 0.13885131 -0.16949278 -0.23187579 0.21118934
0.2967858 -0.13207756 -0.034880973 -0.3149091 0.19946228 0.39898005 0.17636631 -0.30240014
-0.29777542 0.29205388 0.29840383 0.32102022 0.055561904 0.12913753 0.20681739 0.30624983
0.316208 0.25370818 0.3247724 -0.06117218 -0.21546707 0.015183565 0.04420111 0.080516785
-0.13973081 0.008003484 -0.2237825 -0.09244618 -0.05712982 -0.2755971 -0.10083428 0.14214538
0.2663327 0.15321182 -0.038072973 -0.033748183 0.1885769 0.089370966 -0.13344479 -0.016120495
0.28559425 0.23892961 0.11969898 -0.06383051 0.19559507 0.2296273 0.11099414 0.27223328
0.1474871 0.04977841 -0.08105976 -0.08964589 0.23493695 0.2733585 -0.2792207 -0.11633033
0.09347419 0.24082851 0.367314 -0.0768672 -0.11581009 0.26485977 0.3878409 0.08062757
0.07453256 0.28413934 0.08159677 0.047864787 0.23181432 0.089174524 -0.15782648 -0.3089498
-0.33486974 -0.28635392 -0.25078392 -0.3358875 -0.18201494 -0.1427105 -0.030721627 0.04405516
-0.0034954406 0.24772729 0.18597336 0.09280177 0.30531904 0.39210272 0.12269079 0.41664374
0.3292599 0.2809624 0.20760821 0.0909722 -0.11889569 -0.0071918913 0.1599232 -0.104099505
0.08550288 -0.07670208 -0.0047259387 -0.040142126 -0.10191299 -0.2029841 -0.12987524 -0.0471525
0.03461369 0.06478896 0.14953203 0.036763903 -0.24739145 -0.13769132 -0.081159875 -0.13587946
0.09548235 -0.012088274 0.26331374 0.09089601 0.20548464 -0.020244926 0.27421254 -0.09323998
0.18554157 -0.0078069977 -0.13491061 -0.03301527 -0.15698726 0.18318611 0.024785042 0.01653745
-0.027887622 -0.060736816 0.18687001 0.3290719 0.2345673 0.11539122 -0.2106393 0.055583306
-0.039486296 -0.078049146 0.23214236 -0.30815792 -0.18350016 -0.17080311 0.0029187645 -0.15251942
-0.24216308 -0.29756066 -0.14481917 -0.23436046 0.072622545 0.018085232 -0.007906007 0.017499194
-0.20980078 -0.07823279 -0.032062545 -0.16308933 -0.094986014 -0.089192666 -0.25333056 0.08681374
-0.041378237 -0.018654227 0.0105624 -0.034727868 0.12855943 0.19037548 0.26155427 -0.080753714
0.16557361 0.27244428 0.40618888 0.33917782 0.21479097 0.14524335 0.32774878 0.13336414
-0.09102865 -0.21169318 -0.11370354 0.3870585 -0.041053962 -0.23576584 -0.028666152 0.012564928
0.23605007 -0.13418481 -0.053530972 -0.15079127 -0.18640478 0.13534854 -0.094409734 -0.16236737
-0.022161057 -0.07111034
00000000: 808c 583e 9015 6d3e 38bd 9f3e 5060 063e
00000010: 0abe ba3e 8f84 a63d 25fb 1f3e 36e4 fe3d
00000020: fa67 733e e182 943a 1b1a c33d 235f ebbd
00000030: cfcf 49be c003 9bbd c38a f13d 98f0 403d
00000040: 0d56 80be e4fd e03d 9b84 8fbe de7e 9f3d
00000050: df1e 21be e58d 69be 1572 7abe c626 ffbc
00000060: b79b 08bd 1bf4 563e c83d 0ebe 6afe b7bd
00000070: 9de0 e73d f2f4 003e 87c3 283e 3495 e6bd
00000080: 9285 56be ebc4 1ebe 2ff3 bc3d c8c3 903e
00000090: 46c0 afbc c070 f9bd 26ea f73c 9fb3 26be
000000a0: c98c 863e c0ce 37be beb9 41be 7427 debd
000000b0: 99a4 9a3b 0543 6a3e 59d2 5a3e 4eb5 77be
000000c0: 8a34 a83c c239 2abe ee5d 003e 458f 893e
000000d0: 0a2f 0e3e 848f 2dbe d970 6dbe 0542 583e
000000e0: 4ff4 973e 573f 07be 5adf 0ebd c43b a1be
000000f0: d73f 4c3e 1d47 cc3e 5f99 343e 31d4 9abe
00000100: 0576 98be 1688 953e 63c8 983e c35c a43e
00000110: e194 633d a13c 043e f0c7 533e c7cc 9c3e
00000120: 04e6 a13e 0ae6 813e 9148 a63e ae8f 7abd
00000130: 66a3 5cbe 7dc4 783c 390c 353d fce5 a43d
00000140: 9815 0fbe 0c21 033c 3d27 65be 6c54 bdbd
00000150: f500 6abd 101b 8dbe 3482 cebd 8f8e 113e
00000160: c25c 883e 8fe3 1c3e 68f2 1bbd 893b 0abd
00000170: 4e1a 413e 2008 b73d c0a5 08be 210f 84bc
00000180: 6939 923e f7a9 743e bd24 f53d 92b9 82bd
00000190: 134a 483e 6b23 6b3e e550 e33d 2962 8b3e
000001a0: dc06 173e 72e4 4b3d a902 a6bd 4498 b7bd
000001b0: 5093 703e a5f5 8b3e 04f6 8ebe 993e eebd
000001c0: 656f bf3d c09b 763e 9510 bc3e 8d6c 9dbd
000001d0: d72d edbd b39b 873e 1593 c63e 1120 a53d
000001e0: 87a4 983d b67a 913e 351c a73d de0d 443d
000001f0: bc60 6d3e 22a1 b63d 449d 21be ab2e 9ebe
00000200: 0c74 abbe fb9c 92be c066 80be 72f9 abbe
00000210: 2062 3abe b422 12be ecab fbbc 2f73 343d
00000220: c313 65bb 39ac 7d3e cd6f 3e3e db0e be3d
00000230: c752 9c3e b0c1 c83e 4f45 fb3d 5452 d53e
00000240: c194 a83e 4eda 8f3e 3f97 543e a24f ba3d
00000250: 957f f3bd f5a9 ebbb e8c2 233e 1f32 d5bd
00000260: 221c af3d fb15 9dbd 0cdc 9abb 126c 24bd
00000270: c2b7 d0bd 10db 4fbe 04fe 04be fb22 41bd
00000280: 16c7 0d3d 13b0 843d ed1e 193e bf95 163d
00000290: 2f54 7dbe f4fe 0cbe 2637 a6bd fc23 0bbe
000002a0: 408c c33d e50d 46bc 0fd1 863e b027 ba3d
000002b0: 916a 523e b0d8 a5bc 9665 8c3e 9af4 bebd
000002c0: 9cfe 3d3e d8d1 ffbb 0226 0abe 053b 07bd
000002d0: 45c1 20be 2495 3b3e 000a cb3c 8c79 873c
000002e0: 9574 e4bc 2bc7 78bd da5a 3f3e 1d7c a83e
000002f0: 6932 703e 3b52 ec3d d4b1 57be 52ab 633d
00000300: 62bc 21bd 3bd8 9fbd bab6 6d3e e0c6 9dbe
00000310: 77e7 3bbe 03e7 2ebe be48 3f3b 0d2e 1cbe
00000320: 99f9 77be df59 98be 7a4b 14be 30fc 6fbe
00000330: 21bb 943d 7b27 943c 3288 01bc 785a 8f3c
00000340: 04d6 56be 8338 a0bd 0454 03bd e400 27be
00000350: 0788 c2bd a5aa b6bd 8bb4 81be 67cb b13d
00000360: 3a7c 29bd c0d0 98bc eb0d 2d3c cf3e 0ebd
00000370: 15a5 033e caf1 423e 71ea 853e 3462 a5bd
00000380: 218c 293e d17d 8b3e fdf7 cf3e b7a8 ad3e
00000390: 2af2 5b3e acba 143e b0ce a73e 9c90 083e
000003a0: 3b6d babd 19c6 58be 67dd e8bd 882c c63e
000003b0: 3328 28bd 9a6c 71be 47d5 eabc 21dd 4d3c
000003c0: 1cb7 713e be67 09be 4b43 5bbd 0769 1abe
000003d0: e5e0 3ebe cf98 0a3e e459 c1bd a243 26be
000003e0: 1b8b b5bc 4ca2 91bd

conv1.bias f4 [10]
0.06121389 0.14572427 0.13839325 -0.0133973025 0.19296718 -0.07386875 -0.06473199 -0.036955036
0.2410087 0.11782706
00000000: 6abb 7a3d be38 153e f6b6 0d3e 5c80 5bbc
00000010: 3099 453e 8048 97bd 3592 84bd 2a5e 17bd
00000020: fcca 763e 504f f13d

conv2.weight f4 [20, 10, 5, 5]
-0.048547763 -0.0029810045 -0.018036576 0.010144838 0.00043053707 0.013961457 -0.10540122 -0.021785552
-0.014684156 0.00190126 -0.026655568 -0.09211679 -0.054868728 0.04552264 -0.071871914 -0.011608959
-0.03472994 0.037521712 -0.028091805 -0.0534217 -0.08839446 -0.02678649 -0.0072281896 0.02941765
-0.067136295 0.042994455 -0.00914103 0.018078316 -0.0028560942 -0.045351084 -0.05002633 -0.020009901
-0.017971 0.0048465943 -0.028902918 0.02460005 -0.03417364 0.044981055 0.016066698 -0.04273604
-0.062529124 0.040175255 0.04943615 0.037574872 -0.058530428 -0.021685855 -0.015421662 0.025063561
-0.0604128 -0.07836744 -0.115201145 -0.2132125 -0.17007564 -0.07587194 0.043867573 -0.14663732
-0.09956696 0.027024524 0.020132698 -0.0031255218 -0.23786408 -0.056694742 0.14442453 -0.00066207524
-0.09155988 -0.10258348 0.09230284 0.16740592 0.038229525 -0.071419984 0.035777707 0.04925247
0.09277326 -0.0060609854 -0.04730847 -0.0018446493 0.030119956 -0.0008079002 0.090622514 0.047997758
0.021357488 0.10672466 0.067184746 0.06819805 0.013786672 0.01768111 0.0516104 0.033129
-0.028669544 0.030099086 -0.018186053 0.056804433 0.048858285 0.034016512 0.055133138 0.024661127
0.03935686 0.010972323 -0.0038673542 -0.04286789 -0.19162868 -0.05178321 0.092221916 0.06851012
0.089885786 -0.12553921 0.043182645 0.044238735 -0.07921278 -0.024071917 -0.0238005 0.069960564
-0.020872742 -0.026843473 -0.024669448 -0.005772993 0.060585227 -0.07554586 -0.014397203 -0.005923725
0.06414533 -0.014156673 -0.00416441 0.015108985 -0.07271575 -0.05198634 -0.09184587 -0.076605566
0.028731199 -0.006486767 -0.12044206 -0.041721046 -0.0016469122 -0.0073421737 -0.12963337 -0.10003533
-0.104470216 -0.02389962 -0.026131054 -0.074412055 0.006848496 -0.06494562 -0.11976382 0.042055957
0.034728345 -0.0008445843 -0.085335 -0.10050508 0.010170729 0.04069429 -0.056174003 -0.014323243
0.0072853807 -0.06906011 0.007872857 0.04180606 0.046762414 -0.016324274 -0.07530288 -0.02949372
-0.01845084 -0.019956877 0.035839114 -0.00071637187 0.060072 0.0547427 -0.074057005 -0.06732032
-0.023483306 -0.053971186 -0.027216045 -0.05814869 -0.016483024 -0.041411955 0.03891623 -0.039417524
-0.007667816 -0.015690645 0.04430218 0.016646909 -0.028713172 -0.036674257 -0.044252742 -0.023069475
0.03683856 0.004147009 -0.07013271 -0.021103194 0.0109084565 -0.04629678 0.014061403 0.013758099
-0.0055243685 -0.046189856 0.021612857 0.013225964 0.040477317 0.08105104 0.012673736 0.056509685
-0.024290793 0.009145235 0.015703669 -0.046523955 -0.047864016 -0.060601834 0.04856625 0.02380336
-0.01455273 -0.008725504 -0.046979714 -0.084581524 -0.04833928 0.027408246 -0.0014556824 -0.002276457
0.012302294 -0.034466438 -0.036451265 0.010489997 -0.01072514 -0.019276448 0.02063065 0.005249798
0.0072819944 0.036590483 -0.057036757 -0.02930805 -0.019153936 0.0631017 0.0695583 -0.082931735
-0.04534967 0.08291068 0.04232697 -0.04464958 0.01786915 0.12046549 0.102298655 -0.017117575
-0.068051346 -0.06567188 0.054161754 0.011653425 -0.018799277 0.016670566 0.030913223 0.06410043
-0.07512468 0.010366143 -0.0029109165 -0.045323662 -0.08620855 0.05675894 0.024904935 -0.042808536
00000000: 05da 46bd f55c 43bb 71c1 93bc 8936 263c
00000010: b5b9 e139 98be 643c 98dc d7bd 9d77 b2bc
00000020: d095 70bc b333 f93a c75c dabc baa7 bcbd
00000030: 08be 60bd f375 3a3d 9531 93bd 8133 3ebc
00000040: fb40 0ebd 5eb0 193d c920 e6bc b6d0 5abd
00000050: 2808 b5bd 576f dbbc 73da ecbb 49fd f03c
00000060: c17e 89bd f41a 303d 42c4 15bc fa18 943c
00000070: 4f2d 3bbb 0fc2 39bd 69e8 4cbd ceeb a3bc
00000080: eb37 93bc 2ed0 9e3b d0c5 ecbc 0b86 c93c
00000090: a9f9 0bbd 0e3e 383d 4f9e 833c fc0b 2fbd
000000a0: 450f 80bd cf8e 243d 8f7d 4a3d 1ce8 193d
000000b0: 9abd 6fbd 89a6 b1bc 23ab 7cbc 1952 cd3c
000000c0: 6a73 77bd 1c7f a0bd 94ee ebbd 6154 5abe
000000d0: 4f28 2ebe bf62 9bbd 7cae 333d 1828 16be
000000e0: c3e9 cbbd 8962 dd3c 54ed a43c 8ed5 4cbb
000000f0: a492 73be bf38 68bd 06e4 133e 1e8f 2dba
00000100: bf83 bbbd 4a17 d2bd 4509 bd3d 756c 2b3e
00000110: 9096 1c3d a444 92bd a58b 123d f5bc 493d
00000120: e8ff bd3d 3b9b c6bb 87c6 41bd 29c8 f1ba
00000130: 20be f63c 44c9 53ba 4c98 b93d 4c99 443d
00000140: e6f5 ae3c 7592 da3d 2898 893d 6bab 8b3d
00000150: 7ee1 613c fad7 903c 6d65 533d 46b2 073d
00000160: 64dc eabc 5c92 f63c ebfa 94bc c4ab 683d
00000170: a01f 483d e654 0b3d 49d3 613d 2206 ca3c
00000180: a934 213d 42c5 333c 7073 7dbb 3e96 2fbd
00000190: 4f3a 44be a21a 54bd d8de bc3d 094f 8c3d
000001a0: 0a16 b83d 5a8d 00be 49e0 303d ad33 353d
000001b0: 4f3a a2bd 7832 c5bc 44f9 c2bc 7c47 8f3d
000001c0: 50fd aabc d8e6 dbbc 9517 cabc 602b bdbb
000001d0: 3728 783d cab7 9abd 3fe2 6bbc cf1b c2bb
000001e0: a05e 833d 64f1 67bc 9a75 88bb ad8b 773c
000001f0: ffeb 94bd a1ef 54bd b019 bcbd 61e3 9cbd
00000200: b15d eb3c f28e d4bb 54aa f6bd b0e3 2abd
00000210: 34dd d7ba 9e96 f0bb 9cbe 04be 53df ccbd
00000220: 7bf4 d5bd 23c9 c3bc cb10 d6bc 5965 98bd
00000230: 5969 e03b 3602 85bd bc46 f5bd de42 2c3d
00000240: 4f3f 0e3d 1867 5dba 1ec4 aebd 9bd5 cdbd
00000250: 21a3 263c 0eaf 263d b616 66bd 09ac 6abc
00000260: 34ba ee3b 636f 8dbd 28fd 003c d53c 2b3d
00000270: f289 3f3d 7cba 85bc 6538 9abd d09c f1bc
00000280: 3726 97bc 9b7c a3bc 09cc 123d e7ca 3bba
00000290: 0f0e 763d e239 603d 33ab 97bd 3cdf 89bd
000002a0: 1060 c0bc e410 5dbd 2ff4 debc 522d 6ebd
000002b0: 6807 87bc 959f 29bd a066 1f3d 4574 21bd
000002c0: 4d42 fbbb ab89 80bc 3476 353d 195f 883c
000002d0: e337 ebbc bf37 16bd 5d42 35bd 32fc bcbc
000002e0: 08e4 163d a2e3 873b bda1 8fbd 9be0 acbc
000002f0: 62b9 323c b1a1 3dbd cd61 663c a669 613c
00000300: c305 b5bb 9331 3dbd 720d b13c b7b1 583c
00000310: 8bcb 253d 16fe a53d 80a5 4f3c b376 673d
00000320: 7cfd c6bc e5d5 153c fba4 803c e78f 3ebd
00000330: 0f0d 44bd a139 78bd 67ed 463d 44ff c23c
00000340: 936e 6ebc 6bf5 0ebc cd6d 40bd 1439 adbd
00000350: 69ff 45bd 4287 e03c 99cc beba 9c30 15bb
00000360: 908f 493c ae2c 0dbd ec4d 15bd 3dde 2b3c
00000370: 7fb8 2fbc a4e9 9dbc 9c01 a93c 7f06 ac3b
00000380: cc9d ee3b e7df 153d 609f 69bd 7017 f0bc
00000390: b7e8 9cbc 773b 813d 9574 8e3d 1dd8 a9bd
000003a0: 93c0 39bd 13cd a93d 0b5f 2d3d 7ae2 36bd
000003b0: 5362 923c 9cb6 f63d f581 d13d 283a 8cbc
000003c0: 815e 8bbd fb7e 86bd b7d8 5d3d 02ee 3e3c
000003d0: f100 9abc b690 883c ba3d fd3c 1647 833d
000003e0: f8da 99bd c1d6 293c 13c5 3ebb 4ea5 39bd
000003f0: 1c8e b0bd 107c 683d 6f05 cc3c 0158 2fbd

conv2.bias f4 [20]
-0.014141474 0.040324356 -0.011335812 -0.07416019 0.028705772 -0.013648618 0.034413315 0.031997092
-0.022491634 0.016992202 0.064106725 0.00945423 -0.029231831 0.044549696 -0.05863532 -0.056840427
0.02473148 -0.037239313 0.018919637 0.02672088
00000000: a4b1 67bc 272b 253d d7b9 39bc 4ce1 97bd
00000010: 5e28 eb3c 749e 5fbc faf4 0c3d 620f 033d
00000020: 6040 b8bc 3b33 8b3c 634a 833d eae5 1a3c
00000030: 9877 efbc be79 363d 972b 70bd 82d1 68bd
00000040: ac99 ca3c 4088 18bd 5bfd 9a3c bfe5 da3c

fc1.weight f4 [50, 320]
0.021075 0.0021763851 0.10669194 0.05583435 -0.008270422 0.016556676 0.008219067 -0.026009422
-0.055513352 -0.010659104 0.06141408 -0.012447109 -0.012609455 -0.08365339 0.02269142 -0.054573752
0.011837339 -0.04144357 0.056924775 0.022370096 -0.046367593 -0.0104656955 0.000513357 -0.021565951
0.01370331 -0.048813008 -0.0063353465 -0.0060369293 -0.050730698 -0.0037607674 -0.049380925 0.052360646
-0.015383238 -0.083929054 -0.03319141 0.029911075 -0.037258256 -0.024378283 0.024778225 0.08900907
-0.016297054 0.054541316 0.015430378 -0.00985828 -0.016395088 -0.060128838 0.019127633 -0.08465127
0.04446028 -0.023323571 -0.041205842 0.04273659 0.050744154 0.027079593 0.010441763 0.0053662304
0.046899207 -0.025023537 -0.021551168 -0.00560689 0.047999267 -0.016899114 -0.0060380218 -0.0076787765
-0.008134725 0.0143490145 -0.08515653 0.0055101523 -0.044482052 0.117163554 -0.009094552 0.09070689
-0.06927042 0.01811686 0.0194404 -0.008700139 -0.09083711 -0.022088442 -0.01963601 0.023450244
-0.028241314 0.025576057 0.046350002 0.09188586 -0.007484553 0.005946928 0.011465727 -0.03018078
0.011000066 0.048402447 -0.056255523 -0.001097977 0.030980337 0.051582552 0.046483573 0.023794625
0.038364198 -0.014885374 0.08308166 -0.009073737 0.013265342 0.0010602063 0.008059033 -0.1035451
-0.022447063 -0.036693174 0.052216318 -0.014824762 -0.055488802 -0.05651444 -0.032868437 0.038528096
-0.09175969 -0.011995775 -0.04741437 -0.1074466 -0.027030472 -0.017296467 0.011382301 0.062127415
0.033028506 -0.026357796 0.026933592 0.0016139526 -0.02979745 0.051559646 0.008817061 -0.0005989984
-0.008752934 0.052297167 0.03310131 0.03890836 -0.039179236 0.017581437 -0.015363774 0.0045727813
-0.014530479 0.03629121 0.03982268 -0.03747892 0.014576743 0.0033581962 -0.048059642 0.012733518
-0.019944355 0.013854703 0.022244422 0.0005566325 0.015738726 -0.0018883738 -0.020473212 0.049277674
-0.045909405 0.060312014 -0.0035690076 0.03830647 -0.055549297 0.061515782 -0.037859656 0.014838494
-0.04312346 0.025314428 -0.096680224 -0.014255262 -0.01606915 -0.09397463 -0.0936182 0.025524104
-0.05031696 0.006580736 0.052611426 -0.014427766 0.013036665 0.06896854 -0.02155629 0.0017292371
-0.101682834 -0.04429606 -0.07701687 -0.0065914597 -0.09693061 1.8051642e-05 0.005464286 -0.05162927
-0.008058338 -0.039617673 -0.034629826 -0.0115293935 -0.014043781 0.05169064 0.08688569 -0.042472914
-0.048998136 -0.015871476 0.023557404 0.021423211 0.06436201 0.04083554 0.056003615 -0.03918235
0.029254017 -0.019528482 0.048805915 -0.023501094 -0.07787677 -0.010362177 -0.017914832 -0.061224572
0.011306811 0.019980572 0.08885246 -0.005579866 -0.021557288 0.0091069285 0.052557543 0.028312013
0.045326862 -0.051081553 -0.0067095584 -0.020076547 0.03228379 0.017149463 -0.007590717 -0.021930443
0.024608277 -0.04859131 -0.006036132 -0.040745962 0.023819197 -0.036806542 0.004547313 0.05581923
-0.061404314 -0.02144378 -0.0028321152 -0.03495496 -0.028672174 -0.008991747 0.0064258734 -0.009126176
-0.0026354415 -0.028397033 -0.047520544 0.044132367 -0.08008312 -0.057226155 -0.043346886 0.07967781
-0.08332149 -0.011525895 0.030300051 -0.013845305 -0.0820089 0.0023763701 0.061244875 0.033060934
00000000: 7aa5 ac3c afa1 0e3b 4e81 da3d 8fb2 643d
00000010: aa80 07bc dea1 873c 44a9 063c b611 d5bc
00000020: f861 63bd 86a3 2ebc 558d 7b3d f6ee 4bbc
00000030: e397 4ebc 7852 abbd 5be3 b93c ba88 5fbd
00000040: 66f1 413c bcc0 29bd f429 693d 7e41 b73c
00000050: f2eb 3dbd 4f78 2bbc ce92 063a 14ab b0bc
00000060: d983 603c 26f0 47bd bd98 cfbb 6fd1 c5bb
00000070: feca 4fbd 3577 76bb a743 4abd 1e78 563d
00000080: fa09 7cbc ffe2 abbd b7f3 07bd 1208 f53c
00000090: 1d9c 18bd f7b4 c7bc b4fb ca3c 634a b63d
000000a0: 6681 85bc b766 5f3d b2cf 7c3c a084 21bc
000000b0: fe4e 86bc a849 76bd 8eb1 9c3c a55d adbd
000000c0: fc1b 363d 1311 bfbc 75c7 28bd 900c 2f3d
000000d0: 1ad9 4f3d 06d6 dd3c ee13 2b3c 34d7 af3b
000000e0: 6219 403d 29fe ccbc 138c b0bc 01ba b7bb
000000f0: e19a 443d 0370 8abc 99da c5bb 3f9e fbbb
00000100: 8247 05bc 2118 6b3c 8c66 aebd 828e b43b
00000110: d032 36bd 72f3 ef3d 5101 15bc 89c4 b93d
00000120: a6dd 8dbd cf69 943c 7941 9f3c 078b 0ebc
00000130: cf08 babd d2f2 b4bc b3db a0bc ba1a c03c
00000140: 545a e7bc e184 d13c 80d9 3d3d a72e bc3d
00000150: fb40 f5bb 73de c23b bfda 3b3c af3d f7bc
00000160: 9f39 343c a541 463d 316c 66bd ffe9 8fba
00000170: 7aca fd3c 3a48 533d 8f65 3e3d f2ec c23c
00000180: c723 1d3d c9e1 73bc b826 aa3d 03aa 14bc
00000190: e156 593c 9ff6 8a3a 090a 043c 740f d4bd
000001a0: e7e2 b7bc 954b 16bd c7e0 553d 8fe3 72bc
000001b0: 3a48 63bd af7b 67bd 0ea1 06bd a3cf 1d3d
000001c0: 81ec bbbd ed89 44bc 9235 42bd f70c dcbd
000001d0: 026f ddbc 52b1 8dbc d57c 3a3c 5179 7e3d
000001e0: e648 073d 4eec d7bc d6a3 dc3c 438b d33a
000001f0: c819 f4bc 3530 533d 6f75 103c 1a06 1dba
00000200: 7768 0fbc 8e35 563d 3d95 073d 5f5e 1f3d
00000210: 687a 20bd f206 903c 57b8 7bbc 45d7 953b
00000220: 3f11 6ebc 18a6 143d 1b1d 233d 7f83 19bd
00000230: 4bd3 6e3c 2f15 5c3b 30da 44bd 3fa0 503c
00000240: 5862 a3bc d6fe 623c ef39 b63c faea 113a
00000250: 80ee 803c 4f83 f7ba 70b7 a7bc 63d7 493d
00000260: 800b 3cbd bb09 773d 03e6 69bb 3fe7 1c3d
00000270: a987 63bd f9f7 7b3d ba12 1bbd 281d 733c
00000280: 3aa2 30bd 3460 cf3c 4800 c6bd e78e 69bc
00000290: 73a3 83bc c575 c0bd e6ba bfbd ed17 d13c
000002a0: 2819 4ebd 37a3 d73b 147f 573d 7062 6cbc
000002b0: bc97 553c 613f 8d3d d196 b0bc 92a7 e23a
000002c0: 173f d0bd c96f 35bd 05bb 9dbd 2cfd d7bb
000002d0: 8e83 c6bd 9b6d 9737 c10d b33b 3779 53bd
000002e0: 1f07 04bc 2446 22bd 01d8 0dbd c8e5 3cbc
000002f0: e317 66bc 91b9 533d 20f1 b13d 14f8 2dbd
00000300: 45b2 48bd e604 82bc 75fb c03c bb7f af3c
00000310: 3bd0 833d 2b43 273d 0c64 653d ac7d 20bd
00000320: 1fa6 ef3c 32fa 9fbc b6e8 473d 5e85 c0bc
00000330: db7d 9fbd 1fc6 29bc 20c2 92bc 9ec6 7abd
00000340: 3440 393c 4cae a33c 47f8 b53d 4fd7 b6bb
00000350: e998 b0bc 3a35 153c 9446 573d 98ee e73c
00000360: a9a8 393d e43a 51bd dbdb dbbb 9277 a4bc
00000370: 023c 043d 087d 8c3c 8dbb f8bb 79a7 b3bc
00000380: 4c97 c93c ae07 47bd bfca c5bb 3de5 26bd
00000390: 7a20 c33c 75c2 16bd a001 953b b4a2 643d
000003a0: 1783 7bbd deaa afbc 029b 39bb ef2c 0fbd
000003b0: e8e1 eabc 1f52 13bc 2290 d23b f585 15bc
000003c0: 5fb7 2cbb e5a0 e8bc e7a4 42bd 24c4 343d
000003d0: 9e02 a4bd f965 6abd 818c 31bd 1f2e a33d
000003e0: 75a4 aabd 1cd7 3cbc d037 f83c 6bd7 62bc
000003f0: 48f4 a7bd e0bc 1b3b e8db 7a3d e76a 073d

fc1.bias f4 [50]
-0.011968866 -0.033830076 -0.058474045 0.01120348 0.051070064 0.0033093456 0.022063727 0.007910513
0.06258932 0.05344441 0.036684316 0.014600305 0.03110609 -0.014816227 -0.027055044 -0.02252251
-0.01891028 0.0574724 0.010472462 0.032629024 0.032040652 0.041264616 -0.0011449268 0.04070752
-0.030940894 -0.01586085 0.03859454 -0.03210897 -0.03902281 -0.034464438 -0.025761664 -0.02787746
0.026036898 0.030931905 0.012584526 0.004288377 0.047177274 0.052663233 -0.0005763936 0.028288426
-0.0012084203 0.009454006 -0.014678445 0.0064624688 0.07063931 0.005241873 0.03292498 0.025752615
0.03210861 0.049476296
00000000: 1019 44bc 6891 0abd 7b82 6fbd cd8e 373c
00000010: d82e 513d 9be1 583b fdbe b43c 199b 013c
00000020: d42e 803d 87e8 5a3d 4b42 163d 1e36 6f3c
00000030: 33d2 fe3c c3bf 72bc 8aa2 ddbc 2081 b8bc
00000040: bbe9 9abc 2e68 6b3d b094 2b3c 03a6 053d
00000050: 0f3d 033d 1605 293d 5e11 96ba eebc 263d
00000060: c277 fdbc 9dee 81bc 4f15 1e3d b284 03bd
00000070: 62d6 1fbd 952a 0dbd 200a d3bc 455f e4bc
00000080: 554b d53c e864 fd3c 542f 4e3c 8385 8c3b
00000090: f53c 413d 67b5 573d 1f19 17ba 21bd e73c
000000a0: db63 9eba fae4 1a3c dc7d 70bc 1ec3 d33b
000000b0: 58ab 903d 05c4 ab3b 58dc 063d 26f7 d23c
000000c0: 5184 033d a8a7 4a3d

fc2.weight f4 [10, 50]
-0.01404576 0.13241398 0.12901454 0.15397446 0.23405331 -0.12844054 -0.17120686 -0.014002185
-0.30736473 0.16225107 -0.1593001 -0.12505463 -0.10636827 -0.24919996 -0.20765543 0.19189978
-0.1729784 0.19002327 -0.011929275 0.15775158 0.10199314 -0.20800574 -0.19228476 0.0360357
0.20081472 0.050684538 -0.002452934 -0.13238814 0.11256668 0.16181359 -0.113146044 -0.15234815
0.101491444 -0.00452853 0.1568761 -0.13046823 -0.022885848 -0.057885926 -0.21364686 0.04581974
0.00034702118 -0.1238525 0.22529386 -0.10286001 -0.18150945 0.23562446 -0.036528207 -0.19788107
0.14371344 0.14175114 0.21984844 -0.24543929 -0.00593279 -0.07475941 -0.1563607 -0.10586001
-0.16854186 0.17995311 -0.04937417 -0.183307 0.21442202 0.18690655 0.22604449 0.13631105
-0.14417861 0.0039983536 0.13746358 -0.18867685 -0.03951123 -0.09093764 -0.011390289 0.11196209
0.07617923 0.30941525 -0.09793891 0.15572758 -0.12208729 0.17854847 -0.1372225 -0.15455177
0.120009325 -0.07873058 -0.0573832 -0.06365007 -0.087329276 -0.14060366 0.20565493 0.36140415
0.20268546 -0.022086594 -0.1808611 0.101569906 -0.09295723 0.019588202 0.21240076 -0.12282482
-0.04326699 -0.118416935 -0.09270277 -0.027188769 0.0015861371 -0.09436655 -0.0471351 -0.017020775
-0.15395257 0.18553104 0.030676398 0.20000347 -0.24892074 0.009947982 -0.028638232 -0.09688286
0.15769167 -0.21092936 -0.03777127 0.10027746 0.18743576 0.17831248 -0.15682735 0.08642585
0.032259014 -0.17846774 -0.23838793 -0.12815617 0.021742783 0.19033629 0.1303898 0.17831585
0.1523442 0.18424247 -0.037112538 -0.054875247 -0.094230905 0.086155415 -0.024748249 -0.10283293
0.12090334 0.083250165 -0.09167635 -0.14712313 -0.17887588 0.14551091 0.22901097 0.058016665
0.21026725 -0.13622329 0.15854087 -0.060117394 -0.06654741 0.15433955 -0.014279574 -0.01573243
0.09680691 0.17776726 -0.12925814 0.089359686 -0.04192618 0.202632 0.08902548 -0.058079004
-0.1746803 -0.16829118 -0.108164616 0.20890336 0.1928903 -0.1292618 0.12555286 -0.07737199
-0.12108764 0.115544334 0.002850443 -0.10330519 -0.14938775 -0.21279487 -0.06832257 0.1690255
-0.15197882 -0.092775814 0.14176631 -0.13226183 -0.10093246 0.20263399 -0.035802554 -0.14232081
-0.1275589 -0.09292181 0.19977395 -0.058737166 0.21355368 -0.079711884 -0.11696635 0.02172458
-0.060465295 0.20033146 -0.0752784 -0.08017774 0.10254779 -0.0006040092 -0.16801225 0.13562454
0.0034219534 -0.25116315 0.083764195 -0.18910758 -0.10811414 0.16834222 0.24993792 -0.06971292
0.11911323 -0.11700949 0.18374325 0.005460105 0.061443396 0.036530036 0.22982542 -0.02360521
-0.16719781 0.21140699 0.23545444 -0.1665454 0.024955794 0.04860803 0.12758467 -0.13103427
-0.029533876 -0.25743592 -0.11181977 0.20223726 -0.11610705 0.18078992 0.19511244 -0.097026706
0.09517465 0.31220564 -0.19367719 0.12043798 -0.11075138 -0.0378489 0.013143276 -0.16702507
-0.08721476 0.031746957 -0.10905481 -0.02953568 -0.098383315 -0.094575696 -0.09038171 0.21503544
0.037306003 -0.21406485 -0.10654005 0.11831071 -0.03264111 0.15300474 -0.11717332 -0.18533297
00000000: 3020 66bc 8897 073e 631c 043e 7bab 1d3e
00000010: acab 6f3e eb85 03be da50 2fbe 6c69 65bc
00000020: e95e 9dbe 2525 263e 911f 23be 520e 00be
00000030: 9cd7 d9bd 462e 7fbe a0a3 54be 6081 443e
00000040: 4021 31be 7695 423e 0173 43bc a189 213e
00000050: c8e1 d03d 75ff 54be 4ce6 44be 2c9a 133d
00000060: 60a2 4d3e 979a 4f3d 67c1 20bb c290 07be
00000070: 5c89 e63d 76b2 253e 1db9 e7bd 2701 1cbe
00000080: bfda cf3d 1064 94bb 21a4 203e 7799 05be
00000090: 1a7b bbbc cb19 6dbd 3ec6 5abe 7bad 3b3d
000000a0: 65f0 b539 61a6 fdbd 6fb3 663e 45a8 d2bd
000000b0: 9ddd 39be 8a47 713e 9a9e 15bd 56a1 4abe
000000c0: 9e29 133e 3627 113e f31f 613e 7054 7bbe
000000d0: da67 c2bb 761b 99bd 051d 20be 22cd d8bd
000000e0: 3d96 2cbe a145 383e 923c 4abd d5b4 3bbe
000000f0: 7291 5b3e 6e64 3f3e 3578 673e 2095 0b3e
00000100: 8fa3 13be 9f04 833b 41c3 0c3e 8134 41be
00000110: 87d6 21bd 833d babd 569e 3abc 614c e53d
00000120: db03 9c3d ad6b 9e3e 3294 c8bd 0d77 1f3e
00000130: e708 fabd 69d5 363e 0e84 0cbe d242 1ebe
00000140: 73c7 f53d 803d a1bd a50a 6bbd f85a 82bd
00000150: b1d9 b2bd 68fa 0fbe 3597 523e f709 b93e
00000160: c78c 4f3e f2ee b4bc a733 39be e203 d03d
00000170: 5c60 bebd 7077 a03c 967f 593e 948b fbbd
00000180: ba38 31bd 9484 f2bd f3da bdbd fbba debc
00000190: eee5 cf3a 4043 c1bd bc10 41bd 276f 8bbc
000001a0: bea5 1dbe d9fb 3d3e 124d fb3c b6cd 4c3e
000001b0: 14e5 7ebe dcfc 223c ba9a eabc 856a c6bd
000001c0: ed79 213e defd 57be 0cb6 1abd 455e cd3d
000001d0: 29ef 3f3e 8c97 363e 5997 20be 0900 b13d
000001e0: 0722 043d 3fc0 36be f71b 74be 5f3b 03be
000001f0: ec1d b23c 84e7 423e e784 053e 6e98 363e
00000200: 1e00 1c3e 0faa 3c3e 5103 18bd dec4 60bd
00000210: 22fc c0bd 4072 b03d d7bc cabc 129a d2bd
00000220: 2c9c f73d 107f aa3d cfc0 bbbd 72a7 16be
00000230: 3d2b 37be d000 153e da81 6a3e e2a2 6d3d
00000240: 4c50 573e 1e7e 0bbe 8a58 223e a83d 76bd
00000250: 024a 88bd 300b 1e3e e0f4 69bc 4ce1 80bc
00000260: b442 c63d 9f08 363e 3f5c 04be 3602 b73d
00000270: c9ba 2bbd c37e 4f3e fe52 b63d 40e4 6dbd
00000280: 64df 32be 8654 2cbe 6985 ddbd c3ea 553e
00000290: 0985 453e 355d 04be ee90 003e 3575 9ebd
000002a0: ccfc f7bd 82a2 ec3d 7fce 3a3b ac91 d3bd
000002b0: 1af9 18be e6e6 59be b4ec 8bbd 0515 2d3e
000002c0: 56a0 1bbe 3f01 bebd 302b 113e a56f 07be
000002d0: adb5 cebd 497f 4f3e b3a5 12bd 8cbc 11be
000002e0: cd9e 02be ca4d bebd 8b91 4c3e 6296 70bd
000002f0: d1ad 5a3e fc3f a3bd 0e8c efbd bff7 b13c
00000300: 75aa 77bd b123 4d3e 902b 9abd 3a34 a4bd
00000310: 9304 d23d 5f56 1eba 670b 2cbe 29e1 0a3e
00000320: da42 603b 7598 80be 908c ab3d 6ba5 41be
00000330: f26a ddbd e761 2c3e baef 7f3e a6c5 8ebd
00000340: a3f1 f33d aca2 efbd 3127 3c3e aeea b23b
00000350: 12ac 7b3d 85a0 153d 5b57 6b3e b75f c1bc
00000360: e735 2bbe 137b 583e f81a 713e e18a 2abe
00000370: 1870 cc3c 3719 473d 8ea5 023e d92d 06be
00000380: 07f1 f1bc a4ce 83be c301 e5bd 4917 4f3e
00000390: 88c9 edbd fe20 393e 8ecb 473e f0b5 c6bd
000003a0: edea c23d 6bd9 9f3e 5053 46be 30a8 f63d
000003b0: 9fd1 e2bd 7307 1bbd e556 573c 9f08 2bbe
000003c0: a79d b2bd 1909 023d 2158 dfbd cff4 f1bc
000003d0: 317d c9bd e7b0 c1bd 0c1a b9bd 4032 5c3e
000003e0: 2ece 183d d133 5bbe ab31 dabd e34c f23d
000003f0: afb2 05bd 46ad 1c3e 91f8 efbd edc7 3dbe

fc2.bias f4 [10]
0.049620204 -0.0018173313 -0.084593974 0.09810394 0.07852583 0.08135045 -0.077209085 0.09051066
0.04216049 0.029832082
00000000: 8e3e 4b3d 8533 eeba 9b3f adbd b8ea c83d
00000010: 26d2 a03d 119b a63d cc1f 9ebd a75d b93d
00000020: 7ab0 2c3d 6962 f43c
